…
``` In[86]:classLSTMmodel(nn.Module):def__init__(self,input_size):super(LSTMModel,self)__init__()self.embedding=nn.Embedding(input_size,32)self.lstm=nn.LSTM(input_size=32,hidden_size=32,batch_first=True)self.dense=nn.Linear(32,1)defforward(self,x):val,(h_n,c_n)=self.lstm(self.embedding(x))returntorch.flatten(self.dense(val[:,-1])) ```

We instantiate and take a look at the summary of the model, using the first 10 documents in the corpus.

``` In[87]:lstm_model=LSTMModel(X_test.shape[-1])summary(lstm_model,input_data=imdb_seq_train.tensors[0][:10],col_names=['input_size','output_size','num_params']) ```

``` Out[87]:=================  Layer(type:depth-idx)InputShapeOutputShapeParam#=================  LSTMModel[10,500][10]* [10, 500] [10, 500, 32] 320,096
* [10, 500, 32] 8,448
* [10, 32] [10, 1] 33 ================================
* [10, 500] [10, 500, 32] 320,096
* [10, 500, 32] 8,448
* [10, 32] [10, 1] 33 ================
* [10, 500] [10, 500, 32] 320,096
* [10, 500, 32] 8,448
* [10, 32] [10, 1] 33 ================
* [10, 500] [10, 500, 32] 320,096
* [10, 500, 32] 8,448
* [10, 32] [10, 1] 33 ================
* [10, 500] [10, 500, 32] 320,096
* [10, 500, 32] 8,448
* [10, 32] [10, 1] 33 ================
* [10, 500] [10, 500, 32] 320,096
* [10, 500, 32] 8,448
* [10, 32] [10, 1] 33 ================
* [10, 500] [10, 500, 32] 320,096
* [10, 500, 32] 8,448
* [10, 32] [10, 1] 33 ================
* [10, 500] [10, 500, 32] 320,096
* [10, 500, 32] 8,448
* [10, 32] [10, 1] 33 ================
* [10, 500] [10, 500, 32] 320,096
* [10, 500, 32] 8,448
* [10, 32] [10, 1] 33 ================
* [10, 500] [10, 500, 32] 320,096
* [10, 500, 32] 8,448
* [10, 32] [10, 1] 33 ================
* [10, 500] [10, 500, 32] 320,096
* [10, 500, 32] 8,448
* [10, 32] 8,448
* [10, 32] 8,448
* [10, 32] 8,448
* [10, 32] [10, 1] 33 ================
* [10, 500] [10, 500, 32] 320,096
* [10, 500, 32] 8,448
* [10, 32] 8,448
* [10, 32] 8,448
* [10, 32] 8,448
* [10, 32] 8,448
* [10, 32] 8,448
* [10, 32] 8,448
* [10, 32] 8,448
* [10, 32] 8,448
* [10, 32] 8,448
* [10, 32] 8,448
* [10, 32] 8,448
* [10, 32] 8,448
* [10, 32] 8,448
* [10, 32] 8,448
* [10, 32] 8,448
* [10, 32] 8,448
* [10, 32] 8,448
* [10, 32] 8,448
* [10, 32] 8,448
* [10, 32] 8,448
* [10, 32] 8,448
* [10, 32] 8,448
* [10, 32] 8,448
* [10, 32] 8,448
* [10, 32] 8,448
* [10, 32] 8,448
* [10, 32] 8,448
* [10, 32] 8,448
* [10, 32] 8,448
* [10, 32] 8,448
* [10, 32] 8,448
* [10, 32] 8,448
* [10, 32] 8,448
* [10, 32] 8,448
* [10, 32] 8,448
* [10, 32] 8,448
* [10, 32] 8,448
* [10, 32] 8,448
* [10, 32] 8,448
* [10, 32] 8,448
* [10, 32] 8,448
* [10, 32] 8,448
* [10, 32] 8,448
* [10, 32] 8,448
* [10, 32] 8,448
* [10, 32] 8,448
* [10, 32] 8,448
* [10, 32] 8,448
* [10, 32] 8,448
* [10, 32] 8,448
* [10, 32] 8,448
* [10, 32] 8,448
* [10, 32] 8,448
* [10, 32] 8,448
* [10, 32] 8,448
* [10, 32] 8,448
* [10, 32] 8,448
* [10, 32] 8,448
* [10, 32] 8,448
* [10, 32] 8,448
* [10, 32] 8,448
* [10, 32] 8,448
* [10, 32] 8,448
* [10, 32] 8,448
* [10, 32] 8,448
* [10, 32] 8,448
* [10, 32] 8,448
* [10, 32] 8,448
* [10, 32] 8,448
* [10, 32] 8,448
* [10, 32] 8,448
* [10, 32] 8,448
* [10, 32] 8,448
* [10, 32] 8,448
* [10, 32] 8,448
* [10, 32] 8,448
* [10, 32] 8,448
* [10, 32] 8,448
* [10, 32] 8,448
* [10, 32] 8,448
* [10, 32] 8,448
* [10, 32] 8,448
* [10, 32] 8,448
* [10, 32] 8,448
* [10, 32] 8,448
* [10, 32] 8,448
* [10, 32] 8,448
* [10, 32] 8,448
* [10, 32] 8,448
* [10, 32] 8,448
* [10, 32] 8,448
* [10, 32] 8,448
* [10, 32] 8,448
* [10, 32] 8,448
* [10, 32] 8,448
* [10, 32] 8,448
* [10, 32] 8,448
* [10, 32] 8,448
* [10, 32] 8,448
* [10, 32] 8,448
* [10, 32] 8,448
* [10, 32] 8,448
* [10, 32] 8,448
* [10, 32] 8,448
* [10, 32] 8,448
* [10, 32] 8,448
* [10, 32] 8,448
* [10, 32] 8,448
* [10, 32] 8,448
* [10, 32] 8,448
* [10, 32] 8,448
* [10, 32] 8,448
* [10, 32] 8,448
* [10, 32] 8,448
* [10, 32] 8,448
* [10, 32] 8,448
* [10, 32] 8,448
* [10, 32] 8,448
* [10, 32] 8,448
* [10, 32] 8,448
* [10, 32] 8,448
* [10, 32] 8,448
* [10, 32] 8,448
* [10, 32] 8,448
* [10, 32] 8,448
* [10, 32] 8,448
* [10, 32] 8,448
* [10, 32] 8,448
* [10, 32] 8,448
* [10, 32] 8,448
* [10, 32] 8,448
* [10, 32] 8,448
* [10, 32] 8,448
* [10, 32] 8,448
* [10, 32] 8,448
* [10, 32] 8,448
* [10, 32] 8,448
* [10, 32] 8,448
* [10, 32] 8,448
* [10, 32] 8,448
* [10, 32] 8,448
* [10, 32] 8,448
* [10, 32] 8,448
* [10, 32] 8,448
* [10, 32] 8,488
* [10, 32] 8,448
* [10, 32] 8,48
* [10, 32] 8,448
* [10, 32] 8,488
* [10, 32] 8,488
* [10, 32] 8,48
* [10, 32] 8,488
* [10, 32] 8
Next we set up the lagged versions of the data, dropping any rows with missing values using the dpropna() method.

``` In[94]:forlaginrange(1,6):forcolincols:newcol=np.zeros(X.shape[0])*np.nannewcol[lag:]=X[col].values[:-lag]X.insert(len(X.columns),*{0}_{1}".format(col,lag),newcol)X.insert(len(X.columns),'train',NYSE['train'])X=X.dropna() ```

Finally, we extract the response, training indicator, and drop the current day's DJ_return and log_volatility to predict only from previous day's data.
…
